Seq2MultiSeq(
  (encoder): BasicEncoder(
    (embedding): Sequential(
      (0): Embedding(33, 256)
      (1): Dropout(p=0.1, inplace=False)
    )
    (rnn): LSTM(256, 512, num_layers=2, dropout=0.2, bidirectional=True)
  )
  (decoder_list): ModuleList(
    (0): GreedyDecoder(
      (feed_forward_decoder): BasicFeedForwardDecoder(
        (attention): AdditiveAttention(
          (additive_mapping): Linear(in_features=1536, out_features=512, bias=True)
          (v): Linear(in_features=512, out_features=1, bias=False)
        )
        (embedding): Sequential(
          (0): Embedding(631, 256)
          (1): Dropout(p=0.1, inplace=False)
        )
        (rnn): LSTM(1280, 512, num_layers=2, dropout=0.2)
        (prediction): Sequential(
          (0): Linear(in_features=1792, out_features=631, bias=True)
          (1): LogSoftmax()
        )
      )
      (bridge_layer): BridgeLayer(
        (bridge_layer): ModuleList(
          (0): Linear(in_features=1024, out_features=512, bias=True)
          (1): Linear(in_features=1024, out_features=512, bias=True)
        )
      )
    )
    (1): GreedyDecoder(
      (feed_forward_decoder): BasicFeedForwardDecoder(
        (attention): AdditiveAttention(
          (additive_mapping): Linear(in_features=1280, out_features=256, bias=True)
          (v): Linear(in_features=256, out_features=1, bias=False)
        )
        (embedding): Sequential(
          (0): Embedding(631, 128)
          (1): Dropout(p=0.1, inplace=False)
        )
        (rnn): LSTM(1152, 256, num_layers=2, dropout=0.1)
        (prediction): Sequential(
          (0): Linear(in_features=1408, out_features=631, bias=True)
          (1): LogSoftmax()
        )
      )
      (bridge_layer): BridgeLayer(
        (bridge_layer): ModuleList(
          (0): Linear(in_features=1024, out_features=256, bias=True)
          (1): Linear(in_features=1024, out_features=256, bias=True)
        )
      )
    )
  )
)
Running multi-task experiment...
Renew Evaluation Records in the Burning Phase...
[Train]: Current Teacher Forcing Ratio: 0.800
[Epoch: 0][#examples: 3200/81252][#steps: 50]
	Train Loss: 4.115 | Train PPL:  61.273 | lr: 3.000e-03
[Epoch: 0][#examples: 6400/81252][#steps: 100]
	Train Loss: 3.830 | Train PPL:  46.049 | lr: 3.000e-03
…
