Seq2Seq(
  (encoder): BasicEncoder(
    (embedding): Sequential(
      (0): Embedding(33, 256)
      (1): Dropout(p=0.1, inplace=False)
    )
    (rnn): LSTM(256, 512, num_layers=2, dropout=0.2, bidirectional=True)
  )
  (decoder): GreedyDecoder(
    (feed_forward_decoder): BasicFeedForwardDecoder(
      (attention): AdditiveAttention(
        (additive_mapping): Linear(in_features=1536, out_features=512, bias=True)
        (v): Linear(in_features=512, out_features=1, bias=False)
      )
      (embedding): Sequential(
        (0): Embedding(631, 256)
        (1): Dropout(p=0.1, inplace=False)
      )
      (rnn): LSTM(1280, 512, num_layers=2, dropout=0.2)
      (prediction): Sequential(
        (0): Linear(in_features=1792, out_features=631, bias=True)
        (1): LogSoftmax()
      )
    )
    (bridge_layer): BridgeLayer(
      (bridge_layer): ModuleList(
        (0): Linear(in_features=1024, out_features=512, bias=True)
        (1): Linear(in_features=1024, out_features=512, bias=True)
      )
    )
  )
)
Running single-main-task experiment...
Renew Evaluation Records in the Burning Phase...
[Train]: Current Teacher Forcing Ratio: 0.800
[Epoch: 0][#examples: 3200/81252][#steps: 50]
	Train Loss: 4.689 | Train PPL: 108.753 | lr: 3.000e-03
[Epoch: 0][#examples: 6400/81252][#steps: 100]
	Train Loss: 4.204 | Train PPL:  66.959 | lr: 3.000e-03
…
[Epoch: 31][Validatiing...]
	 Early Stopping Patience: 28/100
	 Val. Loss: 1.789 | Val. Acc: 0.655 | Val. PPL:   5.986
	 BEST. Val. Loss: 1.626 | BEST. Val. Acc: 0.665 | Val. Loss: 1.751 | BEST. Val. Epoch: 14 | BEST. Val. Step: 18500
---------------------------------------

[Epoch: 31][#examples: 11520/81252][#steps: 39550]
	Train Loss: 0.018 | Train PPL:   1.018 | lr: 9.838e-08
Exiting loop
[VAL]: The number of correct predictions (main-task (single)): 341/513
[TEST]: The number of correct predictions (main-task (single)): 724/1000
Seq2Seq(
  (encoder): BasicEncoder(
    (embedding): Sequential(
      (0): Embedding(33, 256)
      (1): Dropout(p=0.1, inplace=False)
    )
    (rnn): LSTM(256, 512, num_layers=2, dropout=0.2, bidirectional=True)
  )
  (decoder): GreedyDecoder(
    (feed_forward_decoder): BasicFeedForwardDecoder(
      (attention): AdditiveAttention(
        (additive_mapping): Linear(in_features=1536, out_features=512, bias=True)
        (v): Linear(in_features=512, out_features=1, bias=False)
      )
      (embedding): Sequential(
        (0): Embedding(631, 256)
        (1): Dropout(p=0.1, inplace=False)
      )
      (rnn): LSTM(1280, 512, num_layers=2, dropout=0.2)
      (prediction): Sequential(
        (0): Linear(in_features=1792, out_features=631, bias=True)
        (1): LogSoftmax()
      )
    )
    (bridge_layer): BridgeLayer(
      (bridge_layer): ModuleList(
        (0): Linear(in_features=1024, out_features=512, bias=True)
        (1): Linear(in_features=1024, out_features=512, bias=True)
      )
    )
  )
)
Running single-main-task experiment...
[VAL]: The number of correct predictions (main-task (single)): 341/513
[TEST]: The number of correct predictions (main-task (single)): 724/1000
Seq2Seq(
  (encoder): BasicEncoder(
    (embedding): Sequential(
      (0): Embedding(33, 256)
      (1): Dropout(p=0.1, inplace=False)
    )
    (rnn): LSTM(256, 512, num_layers=2, dropout=0.2, bidirectional=True)
  )
  (decoder): GreedyDecoder(
    (feed_forward_decoder): BasicFeedForwardDecoder(
      (attention): AdditiveAttention(
        (additive_mapping): Linear(in_features=1536, out_features=512, bias=True)
        (v): Linear(in_features=512, out_features=1, bias=False)
      )
      (embedding): Sequential(
        (0): Embedding(631, 256)
        (1): Dropout(p=0.1, inplace=False)
      )
      (rnn): LSTM(1280, 512, num_layers=2, dropout=0.2)
      (prediction): Sequential(
        (0): Linear(in_features=1792, out_features=631, bias=True)
        (1): LogSoftmax()
      )
    )
    (bridge_layer): BridgeLayer(
      (bridge_layer): ModuleList(
        (0): Linear(in_features=1024, out_features=512, bias=True)
        (1): Linear(in_features=1024, out_features=512, bias=True)
      )
    )
  )
)
Running single-main-task experiment...
[VAL]: The number of correct predictions (main-task (single)): 341/513
[TEST]: The number of correct predictions (main-task (single)): 724/1000
Seq2Seq(
  (encoder): BasicEncoder(
    (embedding): Sequential(
      (0): Embedding(33, 256)
      (1): Dropout(p=0.1, inplace=False)
    )
    (rnn): LSTM(256, 512, num_layers=2, dropout=0.2, bidirectional=True)
  )
  (decoder): GreedyDecoder(
    (feed_forward_decoder): BasicFeedForwardDecoder(
      (attention): AdditiveAttention(
        (additive_mapping): Linear(in_features=1536, out_features=512, bias=True)
        (v): Linear(in_features=512, out_features=1, bias=False)
      )
      (embedding): Sequential(
        (0): Embedding(631, 256)
        (1): Dropout(p=0.1, inplace=False)
      )
      (rnn): LSTM(1280, 512, num_layers=2, dropout=0.2)
      (prediction): Sequential(
        (0): Linear(in_features=1792, out_features=631, bias=True)
        (1): LogSoftmax()
      )
    )
    (bridge_layer): BridgeLayer(
      (bridge_layer): ModuleList(
        (0): Linear(in_features=1024, out_features=512, bias=True)
        (1): Linear(in_features=1024, out_features=512, bias=True)
      )
    )
  )
)
Running single-main-task experiment...
[VAL]: The number of correct predictions (main-task (single)): 341/513
[TEST]: The number of correct predictions (main-task (single)): 724/1000
Seq2Seq(
  (encoder): BasicEncoder(
    (embedding): Sequential(
      (0): Embedding(33, 256)
      (1): Dropout(p=0.1, inplace=False)
    )
    (rnn): LSTM(256, 512, num_layers=2, dropout=0.2, bidirectional=True)
  )
  (decoder): GreedyDecoder(
    (feed_forward_decoder): BasicFeedForwardDecoder(
      (attention): AdditiveAttention(
        (additive_mapping): Linear(in_features=1536, out_features=512, bias=True)
        (v): Linear(in_features=512, out_features=1, bias=False)
      )
      (embedding): Sequential(
        (0): Embedding(631, 256)
        (1): Dropout(p=0.1, inplace=False)
      )
      (rnn): LSTM(1280, 512, num_layers=2, dropout=0.2)
      (prediction): Sequential(
        (0): Linear(in_features=1792, out_features=631, bias=True)
        (1): LogSoftmax()
      )
    )
    (bridge_layer): BridgeLayer(
      (bridge_layer): ModuleList(
        (0): Linear(in_features=1024, out_features=512, bias=True)
        (1): Linear(in_features=1024, out_features=512, bias=True)
      )
    )
  )
)
Running single-main-task experiment...
[VAL]: The number of correct predictions (main-task (single)): 341/513
[TEST]: The number of correct predictions (main-task (single)): 724/1000
Seq2Seq(
  (encoder): BasicEncoder(
    (embedding): Sequential(
      (0): Embedding(33, 256)
      (1): Dropout(p=0.1, inplace=False)
    )
    (rnn): LSTM(256, 512, num_layers=2, dropout=0.2, bidirectional=True)
  )
  (decoder): GreedyDecoder(
    (feed_forward_decoder): BasicFeedForwardDecoder(
      (attention): AdditiveAttention(
        (additive_mapping): Linear(in_features=1536, out_features=512, bias=True)
        (v): Linear(in_features=512, out_features=1, bias=False)
      )
      (embedding): Sequential(
        (0): Embedding(631, 256)
        (1): Dropout(p=0.1, inplace=False)
      )
      (rnn): LSTM(1280, 512, num_layers=2, dropout=0.2)
      (prediction): Sequential(
        (0): Linear(in_features=1792, out_features=631, bias=True)
        (1): LogSoftmax()
      )
    )
    (bridge_layer): BridgeLayer(
      (bridge_layer): ModuleList(
        (0): Linear(in_features=1024, out_features=512, bias=True)
        (1): Linear(in_features=1024, out_features=512, bias=True)
      )
    )
  )
)
Running single-main-task experiment...
[VAL]: The number of correct predictions (main-task (single)): 341/513
[TEST]: The number of correct predictions (main-task (single)): 724/1000
Seq2Seq(
  (encoder): BasicEncoder(
    (embedding): Sequential(
      (0): Embedding(33, 256)
      (1): Dropout(p=0.1, inplace=False)
    )
    (rnn): LSTM(256, 512, num_layers=2, dropout=0.2, bidirectional=True)
  )
  (decoder): GreedyDecoder(
    (feed_forward_decoder): BasicFeedForwardDecoder(
      (attention): AdditiveAttention(
        (additive_mapping): Linear(in_features=1536, out_features=512, bias=True)
        (v): Linear(in_features=512, out_features=1, bias=False)
      )
      (embedding): Sequential(
        (0): Embedding(631, 256)
        (1): Dropout(p=0.1, inplace=False)
      )
      (rnn): LSTM(1280, 512, num_layers=2, dropout=0.2)
      (prediction): Sequential(
        (0): Linear(in_features=1792, out_features=631, bias=True)
        (1): LogSoftmax()
      )
    )
    (bridge_layer): BridgeLayer(
      (bridge_layer): ModuleList(
        (0): Linear(in_features=1024, out_features=512, bias=True)
        (1): Linear(in_features=1024, out_features=512, bias=True)
      )
    )
  )
)
Running single-main-task experiment...
[VAL]: The number of correct predictions (main-task (single)): 341/513
[TEST]: The number of correct predictions (main-task (single)): 724/1000
Seq2Seq(
  (encoder): BasicEncoder(
    (embedding): Sequential(
      (0): Embedding(33, 256)
      (1): Dropout(p=0.1, inplace=False)
    )
    (rnn): LSTM(256, 512, num_layers=2, dropout=0.2, bidirectional=True)
  )
  (decoder): GreedyDecoder(
    (feed_forward_decoder): BasicFeedForwardDecoder(
      (attention): AdditiveAttention(
        (additive_mapping): Linear(in_features=1536, out_features=512, bias=True)
        (v): Linear(in_features=512, out_features=1, bias=False)
      )
      (embedding): Sequential(
        (0): Embedding(631, 256)
        (1): Dropout(p=0.1, inplace=False)
      )
      (rnn): LSTM(1280, 512, num_layers=2, dropout=0.2)
      (prediction): Sequential(
        (0): Linear(in_features=1792, out_features=631, bias=True)
        (1): LogSoftmax()
      )
    )
    (bridge_layer): BridgeLayer(
      (bridge_layer): ModuleList(
        (0): Linear(in_features=1024, out_features=512, bias=True)
        (1): Linear(in_features=1024, out_features=512, bias=True)
      )
    )
  )
)
Running single-main-task experiment...
[VAL]: The number of correct predictions (main-task (single)): 341/513
[TEST]: The number of correct predictions (main-task (single)): 724/1000
Seq2Seq(
  (encoder): BasicEncoder(
    (embedding): Sequential(
      (0): Embedding(33, 256)
      (1): Dropout(p=0.1, inplace=False)
    )
    (rnn): LSTM(256, 512, num_layers=2, dropout=0.2, bidirectional=True)
  )
  (decoder): GreedyDecoder(
    (feed_forward_decoder): BasicFeedForwardDecoder(
      (attention): AdditiveAttention(
        (additive_mapping): Linear(in_features=1536, out_features=512, bias=True)
        (v): Linear(in_features=512, out_features=1, bias=False)
      )
      (embedding): Sequential(
        (0): Embedding(631, 256)
        (1): Dropout(p=0.1, inplace=False)
      )
      (rnn): LSTM(1280, 512, num_layers=2, dropout=0.2)
      (prediction): Sequential(
        (0): Linear(in_features=1792, out_features=631, bias=True)
        (1): LogSoftmax()
      )
    )
    (bridge_layer): BridgeLayer(
      (bridge_layer): ModuleList(
        (0): Linear(in_features=1024, out_features=512, bias=True)
        (1): Linear(in_features=1024, out_features=512, bias=True)
      )
    )
  )
)
Running single-main-task experiment...
[VAL]: The number of correct predictions (main-task (single)): 341/513
[TEST]: The number of correct predictions (main-task (single)): 724/1000
Seq2Seq(
  (encoder): BasicEncoder(
    (embedding): Sequential(
      (0): Embedding(33, 256)
      (1): Dropout(p=0.1, inplace=False)
    )
    (rnn): LSTM(256, 512, num_layers=2, dropout=0.2, bidirectional=True)
  )
  (decoder): GreedyDecoder(
    (feed_forward_decoder): BasicFeedForwardDecoder(
      (attention): AdditiveAttention(
        (additive_mapping): Linear(in_features=1536, out_features=512, bias=True)
        (v): Linear(in_features=512, out_features=1, bias=False)
      )
      (embedding): Sequential(
        (0): Embedding(631, 256)
        (1): Dropout(p=0.1, inplace=False)
      )
      (rnn): LSTM(1280, 512, num_layers=2, dropout=0.2)
      (prediction): Sequential(
        (0): Linear(in_features=1792, out_features=631, bias=True)
        (1): LogSoftmax()
      )
    )
    (bridge_layer): BridgeLayer(
      (bridge_layer): ModuleList(
        (0): Linear(in_features=1024, out_features=512, bias=True)
        (1): Linear(in_features=1024, out_features=512, bias=True)
      )
    )
  )
)
Running single-main-task experiment...
[VAL]: The number of correct predictions (main-task (single)): 341/513
[TEST]: The number of correct predictions (main-task (single)): 724/1000
